…
><p>Detectron2 生成的以 ResNet50 为 backbone 的 FPN 具体参数如下：</p><figure class="highlight shell"><table><tr><td class="gutter"><pre><span class="line">1</span><br><span class="line">2</span><br><span class="line">3</span><br><span class="line">4</span><br><span class="line">5</span><br><span class="line">6</span><br><span class="line">7</span><br><span class="line">8</span><br><span class="line">9</span><br><span class="line">10</span><br><span class="line">11</span><br><span class="line">12</span><br></pre></td><td class="code"><pre><span class="line">FPN(</span><br><span class="line">  (fpn_lateral2): Conv2d(256, 256, kernel_size=(1, 1), stride=(1, 1))</span><br><span class="line">  (fpn_output2): Conv2d(256, 256, kernel_size=(3, 3), stride=(1, 1), padding=(1, 1))</span><br><span class="line">  (fpn_lateral3): Conv2d(512, 256, kernel_size=(1, 1), stride=(1, 1))</span><br><span class="line">  (fpn_output3): Conv2d(256, 256, kernel_size=(3, 3), stride=(1, 1), padding=(1, 1))</span><br><span class="line">  (fpn_lateral4): Conv2d(1024, 256, kernel_size=(1, 1), stride=(1, 1))</span><br><span class="line">  (fpn_output4): Conv2d(256, 256, kernel_size=(3, 3), stride=(1, 1), padding=(1, 1))</span><br><span class="line">  (fpn_lateral5): Conv2d(2048, 256, kernel_size=(1, 1), stride=(1, 1))</span><br><span class="line">  (fpn_output5): Conv2d(256, 256, kernel_size=(3, 3), stride=(1, 1), padding=(1, 1))</span><br><span class="line">  (top_block): LastLevelMaxPool()</span><br><span class="line">  (bottom_up): ResNet50 #   for simplification </span><br><span class="line">)</span><br></pre></td></tr></table></figure><p>带有<code>lateral</code> 关键字的 layer 是上图中的<code>1x1 conv</code>，带有<code>output</code> 是上图中的<code>predict</code>部分，<code>outpu
…
tial_scale=0.25, sampling_ratio=0, aligned=True)</span><br><span class="line">        (1): ROIAlign(output_size=(7, 7), spatial_scale=0.125, sampling_ratio=0, aligned=True)</span><br><span class="line">        (2): ROIAlign(output_size=(7, 7), spatial_scale=0.0625, sampling_ratio=0, aligned=True)</span><br><span class="line">        (3): ROIAlign(output_size=(7, 7), spatial_scale=0.03125, sampling_ratio=0, aligned=True)</span><br><span class="line">      )</span><br><span class="line">    )</span><br><span class="line">    (box_head): FastRCNNConvFCHead(</span><br><span class="line">      (fc1): Linear(in_features=12544, out_features=1024, bias=True)</span><br><span class="line">      (fc2): Linear(in_features=1024, out_features=1024, bias=True)</span><br><span class="line">    )</span><br><span class="line">    (box_predictor): FastRCNNOutputLayers(</span><br><span class="line">      (cls_score): Linear(in_features=1024, out_features=81, bias=True)</span><br><span class="line">      (bbox_pred): Linear(in_features=1024, out_features=320, bias=True)</span><br><span class="line">    )</span><br></pre></td></tr></table></figure><h3 id="4-1-ROIAlign"><a href="#4-1-ROIAlign" class="headerlink" title="4.1 ROIAlign"></a>4.1 ROIAlign</h3><p>Faster R-CNN 采用的是 ROI Pooling 从 feature map 中提取特征，但是由于 ROI Pooling 本身存在精度问题，导致特征没法对齐，所以 Mask R-CNN 中 RPN 之后的取特征操作采用了 ROI Align。关于 ROI Pooling 和 ROI Align 的具体区别请细读Mask R-CNN原文。</p><ul><li><code>output_size</code>： 输出的feature map 的尺寸</li><li><code>spatial_scale</code> ： 代表相对与输入原图的比例（0.25 -&gt; 1/4, 0.125 -&gt; 1/8, 0.0625 -&gt; 1/16, 0.03125 -&gt; 1/32）</li></ul><h3 id="4-2-Box-Head"><a href="#4-2-Box-Head" class="headerlink" title="4.2 Box Head"></a>4.2 Box Head</h3><ul><li><code>(fc1): Linear(in_features=12544, out_features=1024, bias=True)</code>： 12544 = 256*7*7，256代表 ROIAlign 之后的 feature map 通道数目，7*7 为 ROIAlign 的输出feature map 尺寸经过 <code>reshape</code> 操作成一维的大小。</li><li><code>(fc2): Linear(in_features=1024, out_features=1024, bias=True)</code>： 略</li></ul><h3 id="4-3-Box-Predictor"><a href="#4-3-Box-Predictor" class="headerlink" title="4.3 Box Predictor"></a>4.3 Box Predictor</h3><ul><li><code>(cls_score): Linear(in_features=1024, out_features=81, bias=True)</code>： 81代表80类前景目标 + 1背景</li><li><code>(bbox_pred): Linear(in_features=1024, out_features=320, bias=True)</code>： 320 = 80*4，80代表类别,4代表回归量</li></ul><h2 id="5-Mask-Predictor"><a href="#5-Mask-Predictor" class="headerlink" title="5. Mask Predictor"></a>5. Mask Predictor</h2><p>Faster R-CNN 模型结构到上一节 box branch 就结束了，也就是没有本节的 mask branch。mask branch 与 box branch 最大的区别在于 box branch 包含很多额外的layer，如<code>reshape</code>，<code>NMS</code>等。Mask branch 可看做在有限区域（ROIAli
…
mpling_ratio=0, aligned=True)</span><br><span class="line">        (1): ROIAlign(output_size=(14, 14), spatial_scale=0.125, sampling_ratio=0, aligned=True)</span><br><span class="line">        (2): ROIAlign(output_size=(14, 14), spatial_scale=0.0625, sampling_ratio=0, aligned=True)</span><br><span class="line">        (3): ROIAlign(output_size=(14, 14), spatial_scale=0.03125, sampling_ratio=0, aligned=True)</span><br><span class="line">      )</span><br><span class="line">    )</span><br><span class="line">    (mask_head): MaskRCNNConvUpsampleHead(</span><br><span class="line">      (mask_fcn1): Conv2d(256, 256, kernel_size=(3, 3), stride=(1, 1), padding=(1, 1))</span><br><span class="line">      (mask_fcn2): Conv2d(256, 256, kernel_size=(3, 3), stride=(1, 1), padding=(1, 1))</span><br><span class="line">      (mask_fcn3): Conv2d(256, 256, kernel_size=(3, 3), stride=(1, 1), padding=(1, 1))</span><br><span class="line">      (mask_fcn4): Conv2d(256, 256, kernel_size=(3, 3), stride=(1, 1), padding=(1, 1))</span><br><span class="line">      (deconv): ConvTranspose2d(256, 256, kernel_size=(2, 2), stride=(2, 2))</span><br><span class="line">      (predictor): Conv2d(256, 80, kernel_size=(1, 1), stride=(1, 1))</span><br><span class="line">    )</span><br></pre></td></tr></table></figure><p>ROIAlign 同 Box Predictor 内的 ROIAlign。</p><p>Detectron2 中的 mask head 使用的是<code>MaskRCNNConvUpsampleHead</code>，可以看到在<code>predictor</code>之前加了一层<code>ConvTranspose2d</code>，增大了输入最后 predictor 的 feature map， 使得局部定位更加精确 。</p><h2 id="Conclusion"><a href="#Conclusion" class="heade
…
