…
core&quot; crop_param &#123; axis: 2 offset: 18 &#125;&#125;layer &#123; name: &quot;loss&quot; type: &quot;SoftmaxWithLoss&quot; bottom: &quot;score&quot; bottom: &quot;label&quot; top: &quot;loss&quot; loss_param &#123; ignore_label: 255 normalize: true &#125;&#125;I0313 11:41:39.370163 9249 layer_factory.hpp:77] Creating layer dataI0313 11:41:39.370743 9249 net.cpp:84] Creating Layer dataI0313 11:41:39.370753 9249 net.cpp:380] data -&gt; dataI0313 11:41:39.370759 9249 net.cpp:380] data -&gt; labelI0313 11:41:39.372340 9249 net.cpp:122] Setting up dataI0313 11:41:39.372354 9249 net.cpp:129] Top shape: 1 3 16 2016 (96768)I0313 11:41:39.372357 9249 net.cpp:129] Top shape: 1 16 2016 (32256)I0313 11:41:39.372360 9249 net.cpp:137] Memory required for data: 516096I0313 11:41:39.372364 9249 layer_factory.hpp:77] Creating layer data_data_0_splitI0313 11:41:39.372370 9249 net.cpp:84] Creating Layer data_data_0_splitI0313 11:41:39.372372 9249 net.cpp:406] data_data_0_split &lt;- dataI0313 11:41:39.372376 9249 net.cpp:380] data_data_0_split -&gt; data_data_0_split_0I0313 11:41:39.372382 9249 net.cpp:380] data_data_0_split -&gt; data_data_0_split_1I0313 11:41:39.372387 9249 net.cpp:122] Setting up data_data_0_splitI0313 11:41:39.372391 9249 net.cpp:129] Top shape: 1 3 16 2016 (96768)I0313 11:41:39.372395 9249 net.cpp:129] Top shape: 1 3 16 2016 (96768)I0313 11:41:39.372397 9249 net.cpp:137] Memory required for data: 1290240I0313 11:41:39.372400 9249 layer_factory.hpp:77] Creating layer conv1I0313 11:41:39.372406 9249 net.cpp:84] Creating Layer conv1I0313 11:41:39.372409 9249 net.cpp:406] conv1 &lt;- data_data_0_split_0I0313 11:41:39.372412 9249 net.cpp:380] conv1 -&gt; conv1I0313 11:41:39.372515 9249 net.cpp:122] Setting up conv1I0313 11:41:39.372521 9249 net.cpp:129] Top shape: 1 96 52 552 (2755584)I0313 11:41:39.372524 9249 net.cpp:137] Memory required for data: 12312576I0313 11:41:39.372531 9249 layer_factory.hpp:77] Creating layer relu1I0313 11:41:39.372535 9249 net.cpp:84] Creating Layer relu1I0313 11:41:39.372539 9249 net.cpp:406] relu1 &lt;- conv1I0313 11:41:39.372541 9249 net.cpp:367] relu1 -&gt; conv1 (in-place)I0313 11:41:39.372546 9249 net.cpp:122] Setting up relu1I0313 11:41:39.372550 9249 net.cpp:129] Top shape: 1 96 52 552 (2755584)I0313 11:41:39.372552 9249 net.cpp:137] Memory required for data: 23334912I0313 11:41:39.372555 9249 layer_factory.hpp:77] Creating layer pool1I0313 11:41:39.372558 9249 net.cpp:84] Creating Layer pool1I0313 11:41:39.372560 9249 net.cpp:406] pool1 &lt;- conv1I0313 11:41:39.372565 9249 net.cpp:380] pool1 -&gt; pool1I0313 11:41:39.372573 9249 net.cpp:122] Setting up pool1I0313 11:41:39.372576 9249 net.cpp:129] Top shape: 1 96 26 276 (688896)I0313 11:41:39.372579 9249 net.cpp:137] Memory required for data: 26090496I0313 11:41:39.372581 9249 layer_factory.hpp:77] Creating layer norm1I0313 11:41:39.372586 9249 net.cpp:84] Creating Layer norm1I0313 11:41:39.372588 9249 net.cpp:406] norm1 &lt;- pool1I0313 11:41:39.372593 9249 net.cpp:380] norm1 -&gt; norm1I0313 11:41:39.372599 9249 net.cpp:122] Setting up norm1I0313 11:41:39.372602 9249 net.cpp:129] Top shape: 1 96 26 276 (688896)I0313 11:41:39.372604 9249 net.cpp:137] Memory required for data: 28846080I0313 11:41:39.372607 9249 layer_factory.hpp:77] Creating layer conv2I0313 11:41:39.372611 9249 net.cpp:84] Creating Layer conv2I0313 11:41:39.372613 9249 net.cpp:406] conv2 &lt;- norm1I0313 11:41:39.372617 9249 net.cpp:380] conv2 -&gt; conv2I0313 11:41:39.373008 9249 net.cpp:122] Setting up conv2I0313 11:41:39.373013 9249 net.cpp:129] Top shape: 1 256 26 276 (1837056)I0313 11:41:39.373015 9249 net.cpp:137] Memory required for data: 36194304I0313 11:41:39.373021 9249 layer_factory.hpp:77] Creating layer relu2I0313 11:41:39.373025 9249 net.cpp:84] Creating Layer relu2I0313 11:41:39.373028 9249 net.cpp:406] relu2 &lt;- conv2I0313 11:41:39.373030 9249 net.cpp:367] relu2 -&gt; conv2 (in-place)I0313 11:41:39.373034 9249 net.cpp:122] Setting up relu2I0313 11:41:39.373039 9249 net.cpp:129] Top shape: 1 256 26 276 (1837056)I0313 11:41:39.373040 9249 net.cpp:137] Memory required for data: 43542528I0313 11:41:39.373042 9249 layer_factory.hpp:77] Creating layer pool2I0313 11:41:39.373046 9249 net.cpp:84] Creating Layer pool2I0313 11:41:39.373049 9249 net.cpp:406] pool2 &lt;- conv2I0313 11:41:39.373052 9249 net.cpp:380] pool2 -&gt; pool2I0313 11:41:39.373057 9249 net.cpp:122] Setting up pool2I0313 11:41:39.373061 9249 net.cpp:129] Top shape: 1 256 13 138 (459264)I0313 11:41:39.373064 9249 net.cpp:137] Memory required for data: 45379584I0313 11:41:39.373065 9249 layer_factory.hpp:77] Creating layer norm2I0313 11:41:39.373070 9249 net.cpp:84] Creating Layer norm2I0313 11:41:39.373071 9249 net.cpp:406] norm2 &lt;- pool2I0313 11:41:39.373075 9249 net.cpp:380] norm2 -&gt; norm2I0313 11:41:39.373080 9249 net.cpp:122] Setting up norm2I0313 11:41:39.373082 9249 net.cpp:129] Top shape: 1 256 13 138 (459264)I0313 11:41:39.373085 9249 net.cpp:137] Memory required for data: 47216640I0313 11:41:39.373087 9249 layer_factory.hpp:77] Creating layer conv3I0313 11:41:39.373091 9249 net.cpp:84] Creating Layer conv3I0313 11:41:39.373093 9249 net.cpp:406] conv3 &lt;- norm2I0313 11:41:39.373096 9249 net.cpp:380] conv3 -&gt; conv3I0313 11:41:39.373900 9249 net.cpp:122] Setting up conv3I0313 11:41:39.373906 9249 net.cpp:129] Top shape: 1 384 13 138 (688896)I0313 11:41:39.373909 9249 net.cpp:137] Memory required for data: 49972224I0313 11:41:39.373914 9249 layer_factory.hpp:77] Creating layer relu3I0313 11:41:39.373919 9249 net.cpp:84] Creating Layer relu3I0313 11:41:39.373921 9249 net.cpp:406] relu3 &lt;- conv3I0313 11:41:39.373924 9249 net.cpp:367] relu3 -&gt; conv3 (in-place)I0313 11:41:39.373929 9249 net.cpp:122] Setting up relu3I0313 11:41:39.373931 9249 net.cpp:129] Top shape: 1 384 13 138 (688896)I0313 11:41:39.373934 9249 net.cpp:137] Memory required for data: 52727808I0313 11:41:39.373936 9249 layer_factory.hpp:77] Creating layer conv4I0313 11:41:39.373941 9249 net.cpp:84] Creating Layer conv4I0313 11:41:39.373944 9249 net.cpp:406] conv4 &lt;- conv3I0313 11:41:39.373947 9249 net.cpp:380] conv4 -&gt; conv4I0313 11:41:39.374778 9249 net.cpp:122] Setting up conv4I0313 11:41:39.374783 9249 net.cpp:129] Top shape: 1 384 13 138 (688896)I0313 11:41:39.374785 9249 net.cpp:137] Memory required for data: 55483392I0313 11:41:39.374789 9249 layer_factory.hpp:77] Creating layer relu4I0313 11:41:39.374794 9249 net.cpp:84] Creating Layer relu4I0313 11:41:39.374795 9249 net.cpp:406] relu4 &lt;- conv4I0313 11:41:39.374800 9249 net.cpp:367] relu4 -&gt; conv4 (in-place)I0313 11:41:39.374804 9249 net.cpp:122] Setting up relu4I0313 11:41:39.374807 9249 net.cpp:129] Top shape: 1 384 13 138 (688896)I0313 11:41:39.374809 9249 net.cpp:137] Memory required for data: 58238976I0313 11:41:39.374811 9249 layer_factory.hpp:77] Creating layer conv5I0313 11:41:39.374816 9249 net.cpp:84] Creating Layer conv5I0313 11:41:39.374819 9249 net.cpp:406] conv5 &lt;- conv4I0313 11:41:39.374824 9249 net.cpp:380] conv5 -&gt; conv5I0313 11:41:39.375376 9249 net.cpp:122] Setting up conv5I0313 11:41:39.375382 9249 net.cpp:129] Top shape: 1 256 13 138 (459264)I0313 11:41:39.375385 9249 net.cpp:137] Memory required for data: 60076032I0313 11:41:39.375392 9249 layer_factory.hpp:77] Creating layer relu5I0313 11:41:39.375397 9249 net.cpp:84] Creating Layer relu5I0313 11:41:39.375399 9249 net.cpp:406] relu5 &lt;- conv5I0313 11:41:39.375402 9249 net.cpp:367] relu5 -&gt; conv5 (in-place)I0313 11:41:39.375406 9249 net.cpp:122] Setting up relu5I0313 11:41:39.375409 9249 net.cpp:129] Top shape: 1 256 13 138 (459264)I0313 11:41:39.375412 9249 net.cpp:137] Memory required for data: 61913088I0313 11:41:39.375414 9249 layer_factory.hpp:77] Creating layer pool5I0313 11:41:39.375421 9249 net.cpp:84] Creating Layer pool5I0313 11:41:39.375422 9249 net.cpp:406] pool5 &lt;- conv5I0313 11:41:39.375425 9249 net.cpp:380] pool5 -&gt; pool5I0313 11:41:39.375432 9249 net.cpp:122] Setting up pool5I0313 11:41:39.375434 9249 net.cpp:129] Top shape: 1 256 6 69 (105984)I0313 11:41:39.375437 9249 net.cpp:137] Memory required for data: 62337024I0313 11:41:39.375439 9249 layer_factory.hpp:77] Creating layer fc6I0313 11:41:39.375444 9249 net.cpp:84] Creating Layer fc6I0313 11:41:39.375447 9249 net.cpp:406] fc6 &lt;- pool5I0313 11:41:39.375452 9249 net.cpp:380] fc6 -&gt; fc6I0313 11:41:39.404399 9249 net.cpp:122] Setting up fc6I0313 11:41:39.404426 9249 net.cpp:129] Top shape: 1 4096 1 64 (262144)I0313 11:41:39.404430 9249 net.cpp:137] Memory required for data: 63385600I0313 11:41:39.404438 9249 layer_factory.hpp:77] Creating layer relu6I0313 11:41:39.404445 9249 net.cpp:84] Creating Layer relu6I0313 11:41:39.404449 9249 net.cpp:406] relu6 &lt;- fc6I0313 11:41:39.404453 9249 net.cpp:367] relu6 -&gt; fc6 (in-place)I0313 11:41:39.404460 9249 net.cpp:122] Setting up relu6I0313 11:41:39.404464 9249 net.cpp:129] Top shape: 1 4096 1 64 (262144)I0313 11:41:39.404466 9249 net.cpp:137] Memory required for data: 64434176I0313 11:41:39.404469 9249 layer_factory.hpp:77] Creating layer drop6I0313 11:41:39.404474 9249 net.cpp:84] Creating Layer drop6I0313 11:41:39.404476 9249 net.cpp:406] drop6 &lt;- fc6I0313 11:41:39.404481 9249 net.cpp:367] drop6 -&gt; fc6 (in-place)I0313 11:41:39.404486 9249 net.cpp:122] Setting up drop6I0313 11:41:39.404489 9249 net.cpp:129] Top shape: 1 4096 1 64 (262144)I0313 11:41:39.404492 9249 net.cpp:137] Memory required for data: 65482752I0313 11:41:39.404495 9249 layer_factory.hpp:77] Creating layer fc7I0313 11:41:39.404500 9249 net.cpp:84] Creating Layer fc7I0313 11:41:39.404503 9249 net.cpp:406] fc7 &lt;- fc6I0313 11:41:39.404506 9249 net.cpp:380] fc7 -&gt; fc7I0313 11:41:39.417629 9249 net.cpp:122] Setting up fc7I0313 11:41:39.417654 9249 net.cpp:129] Top shape: 1 4096 1 64 (262144)I0313 11:41:39.417657 9249 net.cpp:137] Memory required for data: 66531328I0313 11:41:39.417665 9249 layer_factory.hpp:77] Creating layer relu7I0313 11:41:39.417672 9249 net.cpp:84] Creating Layer relu7I0313 11:41:39.417676 9249 net.cpp:406] relu7 &lt;- fc7I0313 11:41:39.417680 9249 net.cpp:367] relu7 -&gt; fc7 (in-place)I0313 11:41:39.417687 9249 net.cpp:122] Setting up relu7I0313 11:41:39.417690 9249 net.cpp:129] Top shape: 1 4096 1 64 (262144)I0313 11:41:39.417693 9249 net.cpp:137] Memory required for data: 67579904I0313 11:41:39.417696 9249 layer_factory.hpp:77] Creating layer drop7I0313 11:41:39.417703 9249 net.cpp:84] Creating Layer drop7I0313 11:41:39.417706 9249 net.cpp:406] drop7 &lt;- fc7I0313 11:41:39.417709 9249 net.cpp:367] drop7 -&gt; fc7 (in-place)I0313 11:41:39.417713 9249 net.cpp:122] Setting up drop7I0313 11:41:39.417716 9249 net.cpp:129] Top shape: 1 4096 1 64 (262144)I0313 11:41:39.417719 9249 net.cpp:137] Memory required for data: 68628480I0313 11:41:39.417721 9249 layer_factory.hpp:77] Creating layer score_frI0313 11:41:39.417727 9249 net.cpp:84] Creating Layer score_frI0313 11:41:39.417729 9249 net.cpp:406] score_fr &lt;- fc7I0313 11:41:39.417734 9249 net.cpp:380] score_fr -&gt; score_frI0313 11:41:39.417858 9249 net.cpp:122] Setting up score_frI0313 11:41:39.417865 9249 net.cpp:129] Top shape: 1 21 1 64 (1344)I0313 11:41:39.417867 9249 net.cpp:137] Memory required for data: 68633856I0313 11:41:39.417871 9249 layer_factory.hpp:77] Creating layer upscoreI0313 11:41:39.417877 9249 net.cpp:84] Creating Layer upscoreI0313 11:41:39.417881 9249 net.cpp:406] upscore &lt;- score_frI0313 11:41:39.417884 9249 net.cpp:380] upscore -&gt; upscoreI0313 11:41:39.419461 9249 net.cpp:122] Setting up upscoreI0313 11:41:39.419472 9249 net.cpp:129] Top shape: 1 21 63 2079 (2750517)I0313 11:41:39.419476 9249 net.cpp:137] Memory required for data: 79635924I0313 11:41:39.419484 9249 layer_factory.hpp:77] Creating layer scoreI0313 11:41:39.419497 9249 net.cpp:84] Creating Layer scoreI0313 11:41:39.419499 9249 net.cpp:406] score &lt;- upscoreI0313 11:41:39.419503 9249 net.cpp:406] score &lt;- data_data_0_split_1I0313 11:41:39.419507 9249 net.cpp:380] score -&gt; scoreI0313 11:41:39.419517 9249 net.cpp:122] Setting up scoreI0313 11:41:39.419539 9249 net.cpp:129] Top shape: 1 21 16 2016 (677376)I0313 11:41:39.419543 9249 net.cpp:137] Memory required for data: 82345428I0313 11:41:39.419544 9249 layer_factory.hpp:77] Creating layer lossI0313 11:41:39.419554 9249 net.cpp:84] Creating Layer lossI0313 11:41:39.419558 9249 net.cpp:406] loss &lt;- scoreI0313 11:41:39.419560 9249 net.cpp:406] loss &lt;- labelI0313 11:41:39.419564 9249 net.cpp:380] loss -&gt; lossI0313 11:41:3
…
